…
253/253 [==============================] - 1s 2ms/step - loss: 0.0939 - acc: 0.9684
WARNING:tensorflow:TensorFlow optimizers do not make it possible to access optimizer attributes or optimizer state after instantiation. As a result, we cannot save the optimizer as part of the model save file.You will have to compile your model again after loading it. Prefer using a Keras optimizer instead (see keras.io/optimizers).
_________________________________________________________________
Layer (type)                 Output Shape              Param #
=================================================================
conv2d (Conv2D)              (None, 29, 29, 32)        160
_________________________________________________________________
max_pooling2d (MaxPooling2D) (None, 14, 14, 32)        0
_________________________________________________________________
conv2d_1 (Conv2D)            (None, 12, 12, 64)        18496
_________________________________________________________________
max_pooling2d_1 (MaxPooling2 (None, 6, 6, 64)          0
_________________________________________________________________
conv2d_2 (Conv2D)            (None, 4, 4, 64)          36928
_________________________________________________________________
dropout (Dropout)            (None, 4, 4, 64)          0
_________________________________________________________________
flatten (Flatten)            (None, 1024)              0
_________________________________________________________________
dense (Dense)                (None, 512)               524800
_________________________________________________________________
dense_1 (Dense)              (None, 128)               65664
_________________________________________________________________
dense_2 (Dense)              (None, 128)               16512
_________________________________________________________________
dense_3 (Dense)              (None, 2)                 258
=================================================================
Total params: 662,818
Trainable params: 662,818
Non-trainable params: 0
_________________________________________________________________
100/100 [==============================] - 0s 2ms/step
Test accuracy: 99.0
Predictions :  Benign
Actual :  Benign